…
(layers.Dense(128, kernel_initializer='he_uniform', kernel_regularizer=lr_reg))\n","model.add(layers.BatchNormalization())\n","model.add(layers.ReLU())\n","model.add(layers.Dropout(0.5))\n","model.add(layers.Dense(10, activation='softmax'))\n","\n","model.summary()"],"execution_count":null,"outputs":[{"output_type":"stream","text":["Model: \"sequential\"\n","_________________________________________________________________\n","Layer (type)                 Output Shape              Param #   \n","=================================================================\n","conv2d (Conv2D)              (None, 32, 32, 32)        896       \n","_________________________________________________________________\n","batch_normalization (BatchNo (None, 32, 32, 32)        128       \n","_________________________________________________________________\n","re_lu (ReLU)                 (None, 32, 32, 32)        0         \n","_________________________________________________________________\n","conv2d_1 (Conv2D)            (None, 32, 32, 32)        9248      \n","_________________________________________________________________\n","batch_normalization_1 (Batch (None, 32, 32, 32)        128       \n","_________________________________________________________________\n","re_lu_1 (ReLU)               (None, 32, 32, 32)        0         \n","_________________________________________________________________\n","max_pooling2d (MaxPooling2D) (None, 16, 16, 32)        0         \n","_________________________________________________________________\n","dropout (Dropout)            (None, 16, 16, 32)        0         \n","_________________________________________________________________\n","flatten (Flatten)            (None, 8192)              0         \n","_________________________________________________________________\n","dense (Dense)                (None, 128)               1048704   \n","_________________________________________________________________\n","batch_normalization_2 (Batch (None, 128)               512       \n","_________________________________________________________________\n","re_lu_2 (ReLU)               (None, 128)               0         \n","_________________________________________________________________\n","dropout_1 (Dropout)          (None, 128)               0         \n","_________________________________________________________________\n","dense_1 (Dense)              (None, 10)                1290      \n","=================================================================\n","Total params: 1,060,906\n","Trainable params: 1,060,522\n","Non-trainable params: 384\n","_________________________________________________________________\n"],"name":"stdout"}]},{"cell_type":"code","metadata":{"id":"UHC9twKuBd7_"},"source":["@def random_batch(X, y, batch_size=32):\n","    idx = np.random.randint(len(
…
