…
f1DPn=s64","userId":"10637252633069768208"}},"outputId":"86dd63da-94f1-4117-bd8d-be86a38e0ad9"},"source":["discriminator.summary()"],"execution_count":21,"outputs":[{"output_type":"stream","text":["Model: \"model_2\"\n","_________________________________________________________________\n","Layer (type)                 Output Shape              Param #   \n","=================================================================\n","input_3 (InputLayer)         [(None, 28, 28, 1)]       0         \n","_________________________________________________________________\n","conv2d_3 (Conv2D)            (None, 28, 28, 64)        640       \n","_________________________________________________________________\n","dropout_4 (Dropout)          (None, 28, 28, 64)        0         \n","_________________________________________________________________\n","conv2d_4 (Conv2D)            (None, 14, 14, 128)       73856     \n","_________________________________________________________________\n","dropout_5 (Dropout)          (None, 14, 14, 128)       0         \n","_________________________________________________________________\n","conv2d_5 (Conv2D)            (None, 7, 7, 256)         295168    \n","_________________________________________________________________\n","dropout_6 (Dropout)          (None, 7, 7, 256)         0         \n","_________________________________________________________________\n","flatten_1 (Flatten)          (None, 12544)             0         \n","_________________________________________________________________\n","dense_4 (Dense)              (None, 512)               6423040   \n","_________________________________________________________________\n","dropout_7 (Dropout)          (None, 512)               0         \n","_________________________________________________________________\n","dense_5 (Dense)              (None, 1)                 513       \n","=================================================================\n","Total params: 6,793,217\n","Trainable params: 6,793,217\n","Non-trainable params: 0\n","_________________________________________________________________\n"],"name":"stdout"}]},{"cell_type":"markdown","metadata":{"id":"cxQdeStd2XUM"},"source":["## Generator"]},{"cell_type":"code","metadata":{"id":"aXRLPWw82x1Y","exec
…
B8zff1DPn=s64","userId":"10637252633069768208"}},"outputId":"62fd7327-1444-42d9-b0de-45209edc9d86"},"source":["generator.summary()"],"execution_count":23,"outputs":[{"output_type":"stream","text":["Model: \"model_3\"\n","_________________________________________________________________\n","Layer (type)                 Output Shape              Param #   \n","=================================================================\n","input_4 (InputLayer)         [(None, 100)]             0         \n","_________________________________________________________________\n","dense_6 (Dense)              (None, 1024)              102400    \n","_________________________________________________________________\n","batch_normalization_5 (Batch (None, 1024)              4096      \n","_________________________________________________________________\n","dense_7 (Dense)              (None, 3136)              3211264   \n","_________________________________________________________________\n","batch_normalization_6 (Batch (None, 3136)              12544     \n","_________________________________________________________________\n","reshape_1 (Reshape)          (None, 7, 7, 64)          0         \n","_________________________________________________________________\n","conv2d_transpose_4 (Conv2DTr (None, 7, 7, 256)         147456    \n","_________________________________________________________________\n","batch_normalization_7 (Batch (None, 7, 7, 256)         1024      \n","_________________________________________________________________\n","conv2d_transpose_5 (Conv2DTr (None, 7, 7, 128)         294912    \n","_________________________________________________________________\n","batch_normalization_8 (Batch (None, 7, 7, 128)         512       \n","_________________________________________________________________\n","conv2d_transpose_6 (Conv2DTr (None, 14, 14, 64)        73728     \n","_________________________________________________________________\n","batch_normalization_9 (Batch (None, 14, 14, 64)        256       \n","_________________________________________________________________\n","conv2d_transpose_7 (Conv2DTr (None, 28, 28, 1)         576       \n","=================================================================\n","Total params: 3,848,768\n","Trainable params: 3,839,552\n","Non-trainable params: 9,216\n","_________________________________________________________________\n"],"name":"stdout"}]},{"cell_type":"markdown","metadata":{"id":"rnqYBGE68pdg"},"source":["## Random Latent"]},{"cell_type":"code","metadata":{"id":"hSdDXARe8rc
…
