…
DPn=s64","userId":"10637252633069768208"}},"outputId":"27194b8f-80c5-4171-9fe0-560b499be707"},"source":["discriminator.summary()"],"execution_count":140,"outputs":[{"output_type":"stream","text":["Model: \"model_15\"\n","_________________________________________________________________\n","Layer (type)                 Output Shape              Param #   \n","=================================================================\n","input_16 (InputLayer)        [(None, 28, 28, 1)]       0         \n","_________________________________________________________________\n","conv2d_14 (Conv2D)           (None, 14, 14, 32)        320       \n","_________________________________________________________________\n","conv2d_15 (Conv2D)           (None, 7, 7, 64)          18496     \n","_________________________________________________________________\n","flatten_7 (Flatten)          (None, 3136)              0         \n","_________________________________________________________________\n","dense_26 (Dense)             (None, 512)               1606144   \n","_________________________________________________________________\n","dense_27 (Dense)             (None, 1)                 513       \n","=================================================================\n","Total params: 1,625,473\n","Trainable params: 1,625,473\n","Non-trainable params: 0\n","_________________________________________________________________\n"],"name":"stdout"}]},{"cell_type":"markdown","metadata":{"id":"cxQdeStd2XUM"},"source":["## Generator"]},{"cell_type":"code","metadata":{"id":"aXRLPWw82x1Y","exec
…
zff1DPn=s64","userId":"10637252633069768208"}},"outputId":"4b40b907-584d-4100-9ea2-3c8b5c9dffc3"},"source":["generator.summary()"],"execution_count":142,"outputs":[{"output_type":"stream","text":["Model: \"model_16\"\n","_________________________________________________________________\n","Layer (type)                 Output Shape              Param #   \n","=================================================================\n","input_17 (InputLayer)        [(None, 100)]             0         \n","_________________________________________________________________\n","dense_28 (Dense)             (None, 1024)              102400    \n","_________________________________________________________________\n","batch_normalization_12 (Batc (None, 1024)              4096      \n","_________________________________________________________________\n","dense_29 (Dense)             (None, 3136)              3211264   \n","_________________________________________________________________\n","batch_normalization_13 (Batc (None, 3136)              12544     \n","_________________________________________________________________\n","reshape_8 (Reshape)          (None, 7, 7, 64)          0         \n","_________________________________________________________________\n","conv2d_transpose_16 (Conv2DT (None, 14, 14, 32)        18432     \n","_________________________________________________________________\n","batch_normalization_14 (Batc (None, 14, 14, 32)        128       \n","_________________________________________________________________\n","conv2d_transpose_17 (Conv2DT (None, 28, 28, 1)         288       \n","=================================================================\n","Total params: 3,349,152\n","Trainable params: 3,340,768\n","Non-trainable params: 8,384\n","_________________________________________________________________\n"],"name":"stdout"}]},{"cell_type":"markdown","metadata":{"id":"rnqYBGE68pdg"},"source":["## Random Latent"]},{"cell_type":"code","metadata":{"id":"hSdDXARe8rc
…
