…
:"b3b167ee-f59c-4d27-e8a2-f3f74041aafe"},"source":["discriminator = build_discriminator()\n","discriminator.summary()"],"execution_count":8,"outputs":[{"output_type":"stream","name":"stdout","text":["Model: \"model\"\n","_________________________________________________________________\n","Layer (type)                 Output Shape              Param #   \n","=================================================================\n","input_1 (InputLayer)         [(None, 28, 28, 1)]       0         \n","_________________________________________________________________\n","conv2d (Conv2D)              (None, 28, 28, 64)        640       \n","_________________________________________________________________\n","dropout (Dropout)            (None, 28, 28, 64)        0         \n","_________________________________________________________________\n","conv2d_1 (Conv2D)            (None, 14, 14, 128)       73856     \n","_________________________________________________________________\n","dropout_1 (Dropout)          (None, 14, 14, 128)       0         \n","_________________________________________________________________\n","conv2d_2 (Conv2D)            (None, 7, 7, 256)         295168    \n","_________________________________________________________________\n","dropout_2 (Dropout)          (None, 7, 7, 256)         0         \n","_________________________________________________________________\n","flatten (Flatten)            (None, 12544)             0         \n","_________________________________________________________________\n","dense (Dense)                (None, 512)               6423040   \n","_________________________________________________________________\n","dropout_3 (Dropout)          (None, 512)               0         \n","_________________________________________________________________\n","dense_1 (Dense)              (None, 1)                 513       \n","=================================================================\n","Total params: 6,793,217\n","Trainable params: 6,793,217\n","Non-trainable params: 0\n","_________________________________________________________________\n"]}]},{"cell_type":"markdown","metadata":{"id":"cxQdeStd2XUM"},"source":["## Generator"]},{"cell_type":"code","metadata":{"id":"aXRLPWw82x1Y","executionInfo":{"sta
…
outputId":"7c21f765-de7a-4228-ffbe-105ac2b24309"},"source":["generator = build_generator()\n","generator.summary()"],"execution_count":10,"outputs":[{"output_type":"stream","name":"stdout","text":["Model: \"model_1\"\n","_________________________________________________________________\n","Layer (type)                 Output Shape              Param #   \n","=================================================================\n","input_2 (InputLayer)         [(None, 100)]             0         \n","_________________________________________________________________\n","dense_2 (Dense)              (None, 1024)              102400    \n","_________________________________________________________________\n","batch_normalization (BatchNo (None, 1024)              4096      \n","_________________________________________________________________\n","dense_3 (Dense)              (None, 3136)              3211264   \n","_________________________________________________________________\n","batch_normalization_1 (Batch (None, 3136)              12544     \n","_________________________________________________________________\n","reshape (Reshape)            (None, 7, 7, 64)          0         \n","_________________________________________________________________\n","conv2d_transpose (Conv2DTran (None, 7, 7, 256)         147456    \n","_________________________________________________________________\n","batch_normalization_2 (Batch (None, 7, 7, 256)         1024      \n","_________________________________________________________________\n","conv2d_transpose_1 (Conv2DTr (None, 7, 7, 128)         294912    \n","_________________________________________________________________\n","batch_normalization_3 (Batch (None, 7, 7, 128)         512       \n","_________________________________________________________________\n","conv2d_transpose_2 (Conv2DTr (None, 14, 14, 64)        73728     \n","_________________________________________________________________\n","batch_normalization_4 (Batch (None, 14, 14, 64)        256       \n","_________________________________________________________________\n","conv2d_transpose_3 (Conv2DTr (None, 28, 28, 1)         576       \n","=================================================================\n","Total params: 3,848,768\n","Trainable params: 3,839,552\n","Non-trainable params: 9,216\n","_________________________________________________________________\n"]}]},{"cell_type":"markdown","metadata":{"id":"rnqYBGE68pdg"},"source":["## Random Latent"]},{"cell_type":"code","metadata":{"id":"hSdDXARe8rcC","executionInf
…
