…
DPn=s64","userId":"10637252633069768208"}},"outputId":"2058887a-72ef-4d93-b0e2-66d868b24788"},"source":["discriminator.summary()"],"execution_count":126,"outputs":[{"output_type":"stream","text":["Model: \"model_13\"\n","_________________________________________________________________\n","Layer (type)                 Output Shape              Param #   \n","=================================================================\n","input_14 (InputLayer)        [(None, 28, 28, 1)]       0         \n","_________________________________________________________________\n","conv2d_12 (Conv2D)           (None, 14, 14, 32)        320       \n","_________________________________________________________________\n","conv2d_13 (Conv2D)           (None, 7, 7, 64)          18496     \n","_________________________________________________________________\n","flatten_6 (Flatten)          (None, 3136)              0         \n","_________________________________________________________________\n","dense_22 (Dense)             (None, 512)               1606144   \n","_________________________________________________________________\n","dense_23 (Dense)             (None, 1)                 513       \n","=================================================================\n","Total params: 1,625,473\n","Trainable params: 1,625,473\n","Non-trainable params: 0\n","_________________________________________________________________\n"],"name":"stdout"}]},{"cell_type":"markdown","metadata":{"id":"cxQdeStd2XUM"},"source":["## Generator"]},{"cell_type":"code","metadata":{"id":"aXRLPWw82x1Y","exec
…
zff1DPn=s64","userId":"10637252633069768208"}},"outputId":"96e2d977-1207-47ed-c1ec-7edce0dc74a0"},"source":["generator.summary()"],"execution_count":128,"outputs":[{"output_type":"stream","text":["Model: \"model_14\"\n","_________________________________________________________________\n","Layer (type)                 Output Shape              Param #   \n","=================================================================\n","input_15 (InputLayer)        [(None, 100)]             0         \n","_________________________________________________________________\n","dense_24 (Dense)             (None, 1024)              102400    \n","_________________________________________________________________\n","batch_normalization_9 (Batch (None, 1024)              4096      \n","_________________________________________________________________\n","dense_25 (Dense)             (None, 3136)              3211264   \n","_________________________________________________________________\n","batch_normalization_10 (Batc (None, 3136)              12544     \n","_________________________________________________________________\n","reshape_7 (Reshape)          (None, 7, 7, 64)          0         \n","_________________________________________________________________\n","conv2d_transpose_14 (Conv2DT (None, 14, 14, 32)        18432     \n","_________________________________________________________________\n","batch_normalization_11 (Batc (None, 14, 14, 32)        128       \n","_________________________________________________________________\n","conv2d_transpose_15 (Conv2DT (None, 28, 28, 1)         288       \n","=================================================================\n","Total params: 3,349,152\n","Trainable params: 3,340,768\n","Non-trainable params: 8,384\n","_________________________________________________________________\n"],"name":"stdout"}]},{"cell_type":"markdown","metadata":{"id":"rnqYBGE68pdg"},"source":["## Random Latent"]},{"cell_type":"code","metadata":{"id":"hSdDXARe8rc
…
