…
DPn=s64","userId":"10637252633069768208"}},"outputId":"9f3e33c8-68db-4369-eec0-89276759c52f"},"source":["discriminator.summary()"],"execution_count":110,"outputs":[{"output_type":"stream","text":["Model: \"model_11\"\n","_________________________________________________________________\n","Layer (type)                 Output Shape              Param #   \n","=================================================================\n","input_12 (InputLayer)        [(None, 28, 28, 1)]       0         \n","_________________________________________________________________\n","conv2d_10 (Conv2D)           (None, 14, 14, 32)        320       \n","_________________________________________________________________\n","conv2d_11 (Conv2D)           (None, 7, 7, 64)          18496     \n","_________________________________________________________________\n","flatten_5 (Flatten)          (None, 3136)              0         \n","_________________________________________________________________\n","dense_18 (Dense)             (None, 512)               1606144   \n","_________________________________________________________________\n","dense_19 (Dense)             (None, 1)                 513       \n","=================================================================\n","Total params: 1,625,473\n","Trainable params: 1,625,473\n","Non-trainable params: 0\n","_________________________________________________________________\n"],"name":"stdout"}]},{"cell_type":"markdown","metadata":{"id":"cxQdeStd2XUM"},"source":["## Generator"]},{"cell_type":"code","metadata":{"id":"aXRLPWw82x1Y","exec
…
zff1DPn=s64","userId":"10637252633069768208"}},"outputId":"264a36b6-e4c6-45ba-d136-4610145bae5c"},"source":["generator.summary()"],"execution_count":112,"outputs":[{"output_type":"stream","text":["Model: \"model_12\"\n","_________________________________________________________________\n","Layer (type)                 Output Shape              Param #   \n","=================================================================\n","input_13 (InputLayer)        [(None, 100)]             0         \n","_________________________________________________________________\n","dense_20 (Dense)             (None, 1024)              102400    \n","_________________________________________________________________\n","batch_normalization_6 (Batch (None, 1024)              4096      \n","_________________________________________________________________\n","dense_21 (Dense)             (None, 3136)              3211264   \n","_________________________________________________________________\n","batch_normalization_7 (Batch (None, 3136)              12544     \n","_________________________________________________________________\n","reshape_6 (Reshape)          (None, 7, 7, 64)          0         \n","_________________________________________________________________\n","conv2d_transpose_12 (Conv2DT (None, 14, 14, 32)        18432     \n","_________________________________________________________________\n","batch_normalization_8 (Batch (None, 14, 14, 32)        128       \n","_________________________________________________________________\n","conv2d_transpose_13 (Conv2DT (None, 28, 28, 1)         288       \n","=================================================================\n","Total params: 3,349,152\n","Trainable params: 3,340,768\n","Non-trainable params: 8,384\n","_________________________________________________________________\n"],"name":"stdout"}]},{"cell_type":"markdown","metadata":{"id":"rnqYBGE68pdg"},"source":["## Random Latent"]},{"cell_type":"code","metadata":{"id":"hSdDXARe8rc
…
