…
}},"outputId":"9226bd8a-1fdd-4401-83ef-95e369613c0f"},"source":["discriminator = build_discriminator()\n","discriminator.summary()"],"execution_count":22,"outputs":[{"output_type":"stream","text":["Model: \"model_2\"\n","_________________________________________________________________\n","Layer (type)                 Output Shape              Param #   \n","=================================================================\n","input_3 (InputLayer)         [(None, 28, 28, 1)]       0         \n","_________________________________________________________________\n","conv2d_3 (Conv2D)            (None, 28, 28, 64)        640       \n","_________________________________________________________________\n","dropout_4 (Dropout)          (None, 28, 28, 64)        0         \n","_________________________________________________________________\n","conv2d_4 (Conv2D)            (None, 14, 14, 128)       73856     \n","_________________________________________________________________\n","dropout_5 (Dropout)          (None, 14, 14, 128)       0         \n","_________________________________________________________________\n","conv2d_5 (Conv2D)            (None, 7, 7, 256)         295168    \n","_________________________________________________________________\n","dropout_6 (Dropout)          (None, 7, 7, 256)         0         \n","_________________________________________________________________\n","flatten_1 (Flatten)          (None, 12544)             0         \n","_________________________________________________________________\n","dense_4 (Dense)              (None, 512)               6423040   \n","_________________________________________________________________\n","dropout_7 (Dropout)          (None, 512)               0         \n","_________________________________________________________________\n","dense_5 (Dense)              (None, 1)                 513       \n","=================================================================\n","Total params: 6,793,217\n","Trainable params: 6,793,217\n","Non-trainable params: 0\n","_________________________________________________________________\n"],"name":"stdout"}]},{"cell_type":"markdown","metadata":{"id":"cxQdeStd2XUM"},"source":["## Generator"]},{"cell_type":"code","metadata":{"id":"aXRLPWw82x1Y","exec
…
33069768208"}},"outputId":"4a1625b9-c009-46fb-ef2f-a6aee849c604"},"source":["generator = build_generator()\n","generator.summary()"],"execution_count":28,"outputs":[{"output_type":"stream","text":["Model: \"model_4\"\n","_________________________________________________________________\n","Layer (type)                 Output Shape              Param #   \n","=================================================================\n","input_5 (InputLayer)         [(None, 100)]             0         \n","_________________________________________________________________\n","dense_8 (Dense)              (None, 1024)              102400    \n","_________________________________________________________________\n","batch_normalization_10 (Batc (None, 1024)              4096      \n","_________________________________________________________________\n","dense_9 (Dense)              (None, 3136)              3211264   \n","_________________________________________________________________\n","batch_normalization_11 (Batc (None, 3136)              12544     \n","_________________________________________________________________\n","reshape_2 (Reshape)          (None, 7, 7, 64)          0         \n","_________________________________________________________________\n","conv2d_transpose_8 (Conv2DTr (None, 7, 7, 256)         147456    \n","_________________________________________________________________\n","batch_normalization_12 (Batc (None, 7, 7, 256)         1024      \n","_________________________________________________________________\n","conv2d_transpose_9 (Conv2DTr (None, 7, 7, 128)         294912    \n","_________________________________________________________________\n","batch_normalization_13 (Batc (None, 7, 7, 128)         512       \n","_________________________________________________________________\n","conv2d_transpose_10 (Conv2DT (None, 14, 14, 64)        73728     \n","_________________________________________________________________\n","batch_normalization_14 (Batc (None, 14, 14, 64)        256       \n","_________________________________________________________________\n","conv2d_transpose_11 (Conv2DT (None, 28, 28, 1)         576       \n","=================================================================\n","Total params: 3,848,768\n","Trainable params: 3,839,552\n","Non-trainable params: 9,216\n","_________________________________________________________________\n"],"name":"stdout"}]},{"cell_type":"markdown","metadata":{"id":"rnqYBGE68pdg"},"source":["## Random Latent"]},{"cell_type":"code","metadata":{"id":"hSdDXARe8rc
…
:399,"user":{"displayName":"Technical DSC Gunadarma","photoUrl":"https://lh3.googleusercontent.com/a-/AOh14Gi1ItG0iUtuxF4PcvropQFAl8GBQ7dB8zff1DPn=s64","userId":"10637252633069768208"}},"outputId":"9cc7ae04-3423-4678-b27c-16e3e354ce5e"},"source":["model.summary()"],"execution_count":null,"outputs":[{"output_type":"stream","text":["Model: \"sequential_2\"\n","_________________________________________________________________\n","Layer (type)                 Output Shape              Param #   \n","=================================================================\n","conv2d_3 (Conv2D)            (None, 28, 28, 64)        640       \n","_________________________________________________________________\n","dropout_4 (Dropout)          (None, 28, 28, 64)        0         \n","_________________________________________________________________\n","conv2d_4 (Conv2D)            (None, 14, 14, 128)       73856     \n","_________________________________________________________________\n","dropout_5 (Dropout)          (None, 14, 14, 128)       0         \n","_________________________________________________________________\n","conv2d_5 (Conv2D)            (None, 7, 7, 256)         295168    \n","_________________________________________________________________\n","dropout_6 (Dropout)          (None, 7, 7, 256)         0         \n","_________________________________________________________________\n","flatten_1 (Flatten)          (None, 12544)             0         \n","_________________________________________________________________\n","dense_9 (Dense)              (None, 512)               6423040   \n","_________________________________________________________________\n","dropout_8 (Dropout)          (None, 512)               0         \n","_________________________________________________________________\n","dense_10 (Dense)             (None, 10)                5130      \n","=================================================================\n","Total params: 6,797,834\n","Trainable params: 6,428,170\n","Non-trainable params: 369,664\n","_________________________________________________________________\n"],"name":"stdout"}]},{"cell_type":"code","metadata":{"colab":{"base_uri":"https://localhost:8080/"},"id":"pR5UiLBgd2y7","executionInfo":{"status":"ok","times
…
